ensemble_results_linear_optimized/stacking_meta_model.pkl (torch, 45912 bytes, 1 tensors)

weights f4 [11, 1000]
0.9203362 1.040995 0.8649283 1.0549934 1.3121513 1.091424 0.8724541 1.0619003
0.9517689 1.1011467 0.9978557 1.4643726 1.0619627 0.82517374 0.997703 0.8074184
0.86407125 0.87329847 0.7797046 0.72337645 1.2015507 0.88212055 0.9511491 0.9936446
0.8233049 1.2124438 1.0774944 0.9562406 1.1850885 1.0310572 0.840864 0.96233326
1.2772521 1.1435243 1.0988172 1.3354837 1.3027886 1.0946131 1.218987 0.90283984
0.9221525 0.9267619 0.9729006 1.0615073 1.1752448 0.7926485 0.9118308 0.759062
1.1127455 1.3074375 1.1059735 0.9429259 1.1475319 0.845196 1.1701196 1.1900388
1.1110657 1.0302912 1.1807336 0.6822434 1.0096201 1.1258409 0.9683289 1.2187115
0.84259206 1.4927415 1.2181947 0.8651676 1.134436 1.3992447 1.0258595 1.3132876
1.083351 1.0256233 1.1096836 0.9177164 1.1651405 1.0126268 0.9947124 1.0786544
0.5967326 0.69251907 1.0460727 0.901075 1.0909913 1.0731796 1.0386596 1.1865886
0.9469663 1.078446 1.2279468 1.0765952 1.3313315 0.90962595 1.0507617 0.9302799
1.1161262 0.93145245 1.2384263 1.1865172 1.1646011 0.8573461 1.0576642 1.084538
0.9376279 0.97733974 0.96906096 1.2908616 0.9779028 1.1552747 1.2770445 0.9951486
1.0703056 1.5612053 1.3677331 1.0838962 1.2035213 0.81751424 0.90457016 1.0914286
1.1137118 1.080242 1.1352838 1.1834406 0.81936467 0.92994374 0.80111164 1.0246347
1.2752028 0.8945885 1.0278984 0.8658224 0.9032758 0.95904636 0.8610254 0.79909456
1.0050311 0.86984545 1.4016589 1.0161155 1.1415664 1.1636928 1.1014059 1.1227037
0.99747014 0.9570049 1.0317307 1.3355626 1.1247269 1.1178186 1.0147568 1.0510237
1.185845 1.351287 1.1230396 0.9464618 0.92551225 0.96575797 0.9265754 1.1262971
1.0941834 0.8644703 0.9978423 0.84828985 1.0954171 1.0586655 1.1727997 0.98961216
1.2899942 1.3511206 0.9656628 0.7998677 0.9412576 0.84506685 0.86590695 0.8690617
1.1038998 0.84393376 1.17189 0.897611 1.0966289 1.0129979 1.3124635 0.94650686
0.9088623 1.125143 1.1655878 0.9637785 1.110031 0.95134974 0.8744087 1.0949551
1.0211456 1.0484699 0.97263134 0.98989254 0.9112175 0.80061316 0.8442416 1.2664589
0.9779672 1.0585417 0.8035224 0.85596395 0.81877476 1.2449595 0.9578548 0.81793815
1.0293922 0.9353757 1.0229787 1.0419909 0.79222476 1.074009 1.569168 1.0105983
1.350377 1.2936633 1.0562283 1.0708381 1.3499372 1.1690207 0.9940208 0.89138746
1.108205 1.0042164 0.810222 0.86974883 0.9454168 1.0687996 1.131929 1.0885086
0.69994 0.94163615 1.2671958 1.072122 1.1364725 0.9644759 2.148392 1.133171
1.2509279 0.7978427 1.0339692 1.1501335 1.2566187 0.75347644 1.0005352 0.77613276
1.2481154 0.9754113 0.8323588 1.3794681 0.99778014 1.4471345 0.90387124 1.2122235
00000000: 279b 6b3f 533f 853f f16b 5d3f 060a 873f
00000010: 93f4 a73f c8b3 8b3f 2759 5f3f 59ec 873f
00000020: 20a7 733f 60f2 8c3f 7973 7f3f 9070 bb3f
00000030: 65ee 873f 963e 533f 7769 7f3f f9b2 4e3f
00000040: c633 5d3f 7d90 5f3f b89a 473f 332f 393f
00000050: 6acc 993f a7d2 613f 827e 733f 7e5f 7e3f
00000060: 1cc4 523f 5c31 9b3f 56eb 893f 2fcc 743f
00000070: fbb0 973f aff9 833f dd42 573f 795b 763f
00000080: ff7c a33f 015f 923f 0ba6 8c3f 21f1 aa3f
00000090: c7c1 a63f 481c 8c3f c407 9c3f 8320 673f
000000a0: 3012 6c3f 4540 6d3f 0410 793f 79df 873f
000000b0: 6c6e 963f 03eb 4a3f be6d 693f e351 423f
000000c0: 726e 8e3f 1d5a a73f 8a90 8d3f 9763 713f
000000d0: 53e2 923f c45e 583f 7bc6 953f 3153 983f
000000e0: 6737 8e3f 95e0 833f 4722 973f 81a7 2e3f
000000f0: 3b3b 813f 8e1b 903f 67e4 773f bdfe 9b3f
00000100: 1db4 573f 2712 bf3f ceed 9b3f a07b 5d3f
00000110: 3335 913f 731a b33f 5d4f 833f cf19 a83f
00000120: 3fab 8a3f a047 833f 1d0a 8e3f 76ef 6a3f
00000130: 5323 953f c19d 813f 79a5 7e3f 5911 8a3f
00000140: 78c3 183f ee48 313f b6e5 853f daac 663f
00000150: 9aa5 8b3f f35d 893f ccf2 843f 23e2 973f
00000160: 626c 723f 850a 8a3f 5c2d 9d3f dfcd 893f
00000170: 1269 aa3f 3fdd 683f 5c7f 863f d326 6e3f
00000180: 39dd 8e3f ab73 6e3f c184 9e3f ccdf 973f
00000190: a611 953f 097b 5b3f 8a61 873f 24d2 8a3f
000001a0: 6208 703f f032 7a3f 6114 783f f43a a53f
000001b0: d757 7a3f 0be0 933f 3276 a33f 0fc2 7e3f
000001c0: c6ff 883f 93d5 c73f e111 af3f 1cbd 8a3f
000001d0: fc0c 9a3f 9d48 513f e991 673f efb3 8b3f
000001e0: 1c8e 8e3f 5f45 8a3f fb50 913f fb7a 973f
000001f0: e2c1 513f cb10 6e3f a715 4d3f 3b27 833f
00000200: d839 a33f c003 653f 2d92 833f 89a6 5d3f
00000210: 153d 673f 1084 753f 296c 5c3f 7691 4c3f
00000220: dca4 803f 31ae 5e3f 8f69 b33f 1310 823f
00000230: d91e 923f e3f3 943f defa 8c3f c1b4 8f3f
00000240: 345a 7f3f 46fe 743f c00f 843f b7f3 aa3f
00000250: 0df7 8f3f ae14 8f3f 8de3 813f f287 863f
00000260: c5c9 973f f9f6 ac3f c3bf 8f3f 524b 723f
00000270: 5fee 6c3f ea3b 773f 0c34 6d3f 812a 903f
00000280: 340e 8c3f ed4d 5d3f 9872 7f3f 8629 593f
00000290: a136 8c3f 5a82 873f 4d1e 963f 3957 7d3f
000002a0: 881e a53f 85f1 ac3f ad35 773f 21c4 4c3f
000002b0: 42f6 703f 4d56 583f 14ac 5d3f d47a 5e3f
000002c0: 974c 8d3f 0b0c 583f 7e00 963f d6c9 653f
000002d0: 565e 8c3f eaa9 813f cefe a73f 464e 723f
000002e0: 33ab 683f b004 903f fb31 953f 30ba 763f
000002f0: 7f15 8e3f a88b 733f 40d9 5f3f 7d27 8c3f
00000300: e6b4 823f 4334 863f 5efe 783f 9969 7d3f
00000310: 8d45 693f fcf4 4c3f 3820 583f 531b a23f
00000320: 0f5c 7a3f 4b7e 873f a5b3 4d3f 7420 5b3f
00000330: 399b 513f d55a 9f3f f935 753f 6564 513f
00000340: 20c3 833f c874 6f3f f7f0 823f f55f 853f
00000350: 3ecf 4a3f 2079 893f 7fda c83f 495b 813f
00000360: 27d9 ac3f c296 a53f 7d32 873f 3911 893f
00000370: beca ac3f 78a2 953f 2678 7e3f f831 643f
00000380: a9d9 8d3f 2a8a 803f b66a 4f3f dca7 5e3f
00000390: d606 723f 6dce 883f 0de3 903f 4054 8b3f
000003a0: 452f 333f 110f 713f 7933 a23f 4b3b 893f
000003b0: ee77 913f e5e7 763f 417f 0940 bf0b 913f
000003c0: 681e a03f 6b3f 4c3f 1a59 843f 9337 933f
000003d0: e2d8 a03f d5e3 403f 8a11 803f a3b0 463f
000003e0: 3fc2 9f3f 8eb4 793f 7715 553f 6992 b03f
000003f0: 856e 7f3f b43b b93f 1b64 673f 242a 9b3f
